nc: 80
scales:
  n: [0.33, 0.25, 1024]
 
backbone:
  - [-1, 1, Conv, [64, 3, 2]]
  - [-1, 1, CCIRES, [128, 3, 2, 1, True]]
  - [-1, 1, CCIRES, [256, 3, 2, 1, True]]
  - [-1, 1, SCDown, [512, 3, 2]]
  - [-1, 6, C2f_iAFF, [512, True]]
  - [-1, 1, SCDown, [1024, 3, 2]]
  - [-1, 3, C2f_iAFF, [1024, True]]
  - [-1, 1, MultiScaleFusion, [1024, 256, 5]]
  - [-1, 1, PSA, [1024]]
 
head:
  - [-1, 1, AdaptiveUpSample, [2, 4, False]]
  - [[-1, 4], 1, Concat, [1]]
  - [-1, 3, C2f_iAFF, [512]]
 
  - [-1, 1, AdaptiveUpSample, [2, 4, False]]
  - [[-1, 2], 1, Concat, [1]]
  - [-1, 3, C2f_iAFF, [256]]
 
  - [-1, 1, Conv, [256, 3, 2]]
  - [[-1, 11], 1, Concat, [1]]
  - [-1, 3, C2f_iAFF, [512]]
 
  - [-1, 1, SCDown, [512, 3, 2]]
  - [[-1, 8], 1, Concat, [1]]
  - [-1, 3, C2fCIB, [1024, True, True]]
 
  - [[14, 17, 20], 1, v10Detect, [nc]]
